tests/convergence/model.pt (torch, 42444 bytes, 2 tensors)

debug_single_mlp.weight f4 [10, 1024]
0.022668814 0.024714733 -0.008544114 0.027483588 -0.008070106 0.005082938 -0.016437229 0.017129568
0.026325202 -0.024148894 0.025939366 0.004625707 0.021864763 0.003008891 0.013844053 -0.005638108
0.02286578 0.0033956855 -0.015811777 0.0067425547 -0.015621103 -0.0048877965 -0.013915546 0.019507328
-0.025890833 -0.015629677 -0.010047307 -0.02001278 0.001726445 -0.032087997 0.026999144 -0.027768897
0.02290284 0.003977556 -0.011370115 0.018087922 0.0036471796 0.0240255 0.002191995 -0.011082536
0.0071625677 -0.009731069 0.011873141 0.026580686 0.016835783 -0.014647679 0.01720399 0.004498907
0.014525102 -0.020193867 -0.03175779 -0.012967057 -0.025141085 0.024316551 0.0077077737 0.011666418
0.008630419 -0.0017789043 0.023229359 -0.02342747 0.00074458687 -0.022552395 0.008412901 -0.011985045
0.00835241 -0.0077337236 0.024695318 -0.01973524 -0.019849269 -0.01986117 0.026868118 0.009130528
0.028770108 -0.027274348 -0.03286386 -0.026704874 -0.023530187 0.009976901 0.0082279 0.022440385
-0.020535896 -0.026296169 0.011347593 -0.018002018 0.0137691125 -0.012027482 0.014062929 -0.027184496
-0.017970635 0.007706525 0.0050608064 -0.009328969 0.01736511 0.020016273 -0.023884682 -0.017906394
0.02739142 -0.011767864 -0.012302182 -0.03144097 -0.019128544 0.006358367 -0.0059670447 -0.024769804
-0.0016745577 -0.023951886 -0.030598845 -0.022683356 -0.033663608 -0.027120752 0.022756515 -0.0029779035
-0.00071916654 -0.041292507 -0.034624238 -0.02639718 -0.012519058 -0.04471103 -0.02810663 -0.029664358
-0.008295689 -0.017794276 -0.006224019 -0.023744568 -0.023188254 -0.019598592 -0.011948334 -0.025888043
0.024979169 -0.007425052 0.025662802 0.008528853 -0.027769076 0.019729959 -0.0116334865 -0.015768697
-0.030582948 -0.036929615 0.0005960613 -0.017602604 0.000791216 -0.035851315 0.0151891 -0.026053803
-0.007977628 0.0031085266 0.00676193 0.010374788 0.009282495 -0.046237636 -0.011772153 -0.029417943
-0.017287755 -0.034213208 0.020601172 -0.028316183 0.013373728 0.009117095 0.008819399 -0.018119548
0.02718172 0.005644134 0.0027900832 -0.028774157 0.011592108 -0.0074508036 -0.019322375 0.020193748
-0.0020767334 -0.029888641 -0.03171093 -0.018504495 0.0036855023 -0.013926718 -0.012561196 0.009670137
0.0015476388 0.036803156 0.042442802 -0.017616756 0.012180055 0.012874449 -0.003453705 -0.023240443
0.0034576696 0.0039852355 -0.00024881744 -0.015271823 -0.01447371 0.0003665562 -0.0071022664 -0.010566706
0.0187522 0.025633194 -0.0043357494 -0.008307426 -0.0015559135 -0.006016332 -0.00010474012 -0.0018518688
-0.04426122 -0.033481892 0.00062696886 -0.0093091605 -0.011477457 -0.012788796 0.005868835 0.017660186
0.040740743 0.062082205 0.07168459 0.06631652 0.017529186 0.0107750315 0.0069077285 0.029269524
0.001486175 -0.0159217 -0.00068622426 -0.026179245 -0.030304356 0.01780425 -0.016411183 -0.007618121
-0.03231064 0.019690452 0.022411613 0.009890172 -0.024511654 -0.036131274 -0.034435347 0.009058972
-0.0058736852 -0.0020397769 -0.013327477 -0.010954008 -0.0011473829 -0.0064723077 0.005296417 0.011829945
0.05240461 0.028598277 0.049697794 0.048852187 0.06107224 0.03128918 0.013116106 0.030276865
0.009071245 0.029452715 -0.015148054 -0.03796312 -0.020157479 -0.023383455 -0.012885658 -0.031259708
00000000: f3b3 b93c 8d76 ca3c 9dfc 0bbc 4325 e13c
00000010: 7a38 04bc c68e a63b 5ea7 86bc 4f53 8c3c
00000020: f3a7 d73c e7d3 c5bc cb7e d43c 3e93 973b
00000030: bb1d b33c d030 453b 2bd2 623c e1bf b8bb
00000040: 0451 bb3c 268a 5e3b b387 81bc a6f0 dc3b
00000050: a8ef 7fbc cf29 a0bb 08fe 63bc d5cd 9f3c
00000060: 0319 d4bc cf09 80bc 769d 24bc d7f1 a3bc
00000070: e249 e23a b46e 03bd 4f2d dd3c 997b e3bc
00000080: bd9e bb3c 2856 823b b849 3abc 1f2d 943c
00000090: 8505 6f3b 20d1 c43c 93a7 0f3b 8693 35bc
000000a0: f9b3 ea3b 106f 1fbc 9087 423c bdbf d93c
000000b0: 32eb 893c d2fc 6fbc 62ef 8c3c 916b 933b
000000c0: b2fa 6d3c 9c6d a5bc 7514 02bd c773 54bc
000000d0: adf4 cdbc 8133 c73c 7e91 fc3b 8124 3f3c
000000e0: 9a66 0d3c 202a e9ba 7f4b be3c f7ea bfbc
000000f0: 6130 433a cdbf b8bc 44d6 093c ec5c 44bc
00000100: 8cd8 083c 2d6b fdbb d64d ca3c ccab a1bc
00000110: ef9a a2bc e4b3 a2bc 871a dc3c 3698 153c
00000120: 4aaf eb3c 746e dfbc 419c 06bd 2ec4 dabc
00000130: 61c2 c0bc 2876 233c 50ce 063c e6d4 b73c
00000140: e53a a8bc 106b d7bc 41eb 393c f878 93bc
00000150: d897 613c ea0e 45bc 3368 663c 05b2 debc
00000160: 2737 93bc 0487 fc3b 1fd5 a53b 88d8 18bc
00000170: 4641 8e3c 2bf9 a33c cfa9 c3bc 6eb0 92bc
00000180: f963 e03c 00ce 40bc 178f 49bc 3fc8 00bd
00000190: 77b3 9cbc d959 d03b 3387 c3bb 0bea cabc
000001a0: d57c dbba bf36 c4bc 6eaa fabc 72d2 b9bc
000001b0: dae2 09bd 572c debc df6b ba3c ee28 43bb
000001c0: 7386 3cba 5522 29bd 25d2 0dbd e63e d8bc
000001d0: bc1c 4dbc ea22 37bd e03f e6bc ab02 f3bc
000001e0: a4ea 07bc 4dc5 91bc dbf2 cbbb f883 c2bc
000001f0: 4bf5 bdbc 3a8d a0bc f2c2 43bc 2913 d4bc
00000200: 1da1 cc3c da4d f3bb cc3a d23c 9abc 0b3c
00000210: f97b e3bc b9a0 a13c 619a 3ebc 5b2d 81bc
00000220: 1789 fabc 8243 17bd ff40 1c3a 5633 90bc
00000230: 9b69 4f3a d4d8 12bd b4db 783c c96e d5bc
00000240: 99b4 02bc 6cb8 4b3b 2e93 dd3b 04fb 293c
00000250: 9b15 183c ad63 3dbd fddf 40bc e6fd f0bc
00000260: 0d9f 8dbc 2623 0cbd cac3 a83c 57f7 e7bc
00000270: 7b1d 5b3c de5f 153c 3e7f 103c 726f 94bc
00000280: 33ac de3c 6df2 b83b d4d9 363b c8b7 ebbc
00000290: d3ec 3d3c df25 f4bb f549 9ebc 5c6d a53c
000002a0: ce19 08bb 06d9 f4bc 52e3 01bd bd96 97bc
000002b0: 7888 713b e42c 64bc 7acd 4dbc 7f6f 1e3c
000002c0: 24da ca3a e8be 163d 81d8 2d3d 0451 90bc
000002d0: da8e 473c 5aef 523c 8e57 62bb be62 bebc
000002e0: 129a 623b 9496 823b b673 82b9 ab36 7abc
000002f0: 2423 6dbc 572e c039 21ba e8bb fa1f 2dbc
00000300: 379e 993c b4fc d13c e712 8ebb df1b 08bc
00000310: cbef cbba a724 c5bb eca7 dbb8 68ba f2ba
00000320: 414b 35bd 4f24 09bd 2b5b 243a 7385 18bc
00000330: f20b 3cbc 1988 51bc 5b4f c03b 18ac 903c
00000340: c4df 263d e949 7e3d 5fcf 923d f5d0 873d
00000350: 5e99 8f3c c289 303c 3a5a e23b a4c6 ef3c
00000360: c2cb c23a 3a6e 82bc bbe3 33ba db75 d6bc
00000370: d740 f8bc 38da 913c bf70 86bc 6ea1 f9bb
00000380: 2958 04bd df4d a13c 8f98 b73c 630a 223c
00000390: aacc c8bc 63fe 13bd 140c 0dbd 156c 143c
000003a0: 0b78 c0bb c7ad 05bb 7d5b 5abc 7178 33bc
000003b0: c863 96ba a715 d4bb 918d ad3b 63d2 413c
000003c0: 37a6 563d ef46 ea3c ea8f 4b3d 3b19 483d
000003d0: e326 7a3d 1529 003d f0e4 563c 3007 f83c
000003e0: 8f9f 143c d246 f13c 8b2f 78bc 377f 1bbd
000003f0: 4c21 a5bc a98e bfbc 5e1e 53bc 2e0a 00bd

debug_single_mlp.bias f4 [10]
-0.0038931596 -0.013907699 0.020881196 -0.006706366 -0.012337759 -0.025749257 -0.012177493 -0.034043085
0.018108137 -0.02820188
00000000: 6124 7fbb 1edd 63bc 0b0f ab3c 13c1 dbbb
00000010: 5024 4abc 1bf0 d2bc 1c84 47bc c370 0bbd
00000020: 8457 943c a107 e7bc
